DSA-013_Deep_Learning _[5]/flappy_bird_dqn_final_ep4000.pth (torch, 162650 bytes, 6 tensors)

fc1.weight f4 [128, 180]
000000 8d da 9c 3e ca f4 56 3e b7 ef 10 3e b0 70 32 3e
       0.3063549 0.20991817 0.14153944 0.174258
000010 d9 7c f2 ba ef ef 17 3d 71 fa 4b 3d e8 40 b2 3d
       -0.0018500342 0.037094053 0.049799386 0.08703786
000020 a3 46 7b bc 41 0b c3 3d 44 e3 b7 bd af 34 58 3e
       -0.015336665 0.09523631 -0.08978894 0.21113847
000030 81 30 71 3e ab 7e 89 3e 2f c6 a9 3d 4f 62 0d 3e
       0.23553659 0.26854452 0.08289754 0.13807033
000040 9d 51 83 3d 6d 33 fd bc 2b e8 15 be 43 0f 9b be
       0.06412051 -0.03090831 -0.14639346 -0.3028508
000050 c8 ce d0 be 7b a6 57 3d a9 e6 1e bd c5 9b ec 3d
       -0.40782762 0.052649003 -0.038794193 0.11553148
000060 8c de 60 3d 0d 98 09 3e 4f 7c 9e bc e8 a4 9a 3d
       0.054899737 0.13436909 -0.019346384 0.075509846
000070 34 2e 8a 3b d7 77 99 bd 9c 22 93 bb f4 44 22 be
       0.0042169336 -0.07493561 -0.0044902097 -0.15846616
000080 d1 1a 04 be 6d 23 8a be 18 5d d4 be aa a2 b4 3c
       -0.12900855 -0.26980153 -0.41477275 0.02205022
000090 46 87 e6 3c c3 6b f6 3b 5f 47 d9 3d a8 13 3d bd
       0.028140675 0.0075201704 0.10609316 -0.046161324
0000a0 3f 39 b1 be c2 c1 8a be e6 ef 69 be 13 58 65 be
       -0.34613988 -0.2710095 -0.2284542 -0.22396879
0000b0 84 ad 9c be ed 71 a6 be f8 34 c7 be df 9d b5 be
       -0.30601132 -0.32508793 -0.389076 -0.3547201
0000c0 ef 5d 5a be 91 bf 5f be 0c a7 a0 be 66 6e d8 bd
       -0.21324895 -0.2185042 -0.31377447 -0.10567932
0000d0 21 9e b4 be 8a ae db be 2a 87 cf be d1 55 fe be
       -0.35276893 -0.429066 -0.4053281 -0.49674848
0000e0 81 53 ae be a0 15 c4 be 0c 41 39 be 1a 4e 8c be
       -0.34048083 -0.3829775 -0.1809122 -0.27403337
0000f0 0e 21 a5 be 72 89 dc bd cc 97 9b bd ae ce 01 bd
       -0.3225178 -0.10768403 -0.07597312 -0.031691246
000100 b9 9c 26 3c dc f5 e5 3d 11 9e e7 3d 02 86 bc 3e
       0.0101692015 0.112285346 0.11309446 0.3682099
000110 c7 46 91 3e f3 86 b0 3e d3 4b a1 3e 4e 41 af 3e
       0.2837431 0.34477958 0.31503162 0.3422951
000120 86 76 ca 3e ed af 0b 3f 0e ed ce 3e d5 fc d0 3e
       0.3954355 0.54565316 0.40415233 0.40817896
000130 20 8e 66 3e 91 eb 5c 3e 67 d5 c4 3d 89 82 2d 3e
       0.22515154 0.21574236 0.09611016 0.16944326
000140 47 20 75 3e 98 d4 bb 3d 0c 4e cf 3d 91 aa c0 ba
       0.23938094 0.091714084 0.10122308 -0.001469927
000150 94 49 79 3b e2 78 a2 3d 43 30 03 3e 3f fe 0c bc
       0.003803824 0.07933213 0.12811379 -0.008605539
000160 ed 05 71 bd 83 c3 c9 bd 9d 81 2f bc 0b e8 41 bd
       -0.058843542 -0.09851744 -0.010712055 -0.047340434
000170 b2 b8 05 bd a5 ab 4b be 88 96 11 be 45 b0 d1 bd
       -0.032646842 -0.19889696 -0.1421758 -0.10238699
000180 4d 17 10 be 00 ac 49 be bc 4d e6 bc e0 6d 91 bd
       -0.14071389 -0.19694519 -0.028113239 -0.07101035
000190 26 af 2d be ab dd c3 bd 8a 71 84 bd 77 eb 0c bd
       -0.16961345 -0.09563764 -0.06466968 -0.034404244
0001a0 9d ed 72 be e1 69 ee bd ca 42 3b be a8 68 13 be
       -0.23723455 -0.116412885 -0.18287197 -0.14395392
0001b0 94 a7 9c be b2 25 7e be 39 eb b3 be 0f 57 75 be
       -0.30596602 -0.24819067 -0.35140398 -0.23958991
0001c0 23 45 5c be b8 c5 67 be 03 f6 d1 be 74 86 cc be
       -0.21510749 -0.22634017 -0.41008005 -0.3994633
0001d0 86 6a ae be d2 d2 b9 be 45 2a 7e be ae 5f c1 be
       -0.34065646 -0.36293656 -0.24820812 -0.3776831
0001e0 08 9f b6 be 24 9d 56 be b0 2a 6e be 51 47 18 be
       -0.35668206 -0.20958382 -0.23258471 -0.14870955
0001f0 07 dd 4a be 13 d5 46 be 3d 55 77 be ca 89 db bd
       -0.19810878 -0.19417219 -0.2415361 -0.107196406
000200 21 a1 ff bd 85 b8 db bd 3a fb e1 bd e9 3f a1 bd
       -0.12481905 -0.10728554 -0.11034246 -0.07873518
000210 44 53 86 bc 09 b7 97 bc 91 27 d0 bc fe 90 15 3d
       -0.016397126 -0.018519895 -0.025409492 0.03651523
000220 4a d1 e4 3d 59 55 a9 3d 48 ef c6 3d fe a4 74 3d
       0.11172731 0.08268232 0.09713608 0.05972766
000230 2c 3f 55 bc a3 9f f4 3d a2 db 50 bd 09 e1 cc 3c
       -0.01301555 0.11944511 -0.05099071 0.025009649
000240 1f 7e fa 3c 9a 59 be bc a7 d7 b3 bd 8d a8 70 bd
       0.030577717 -0.023236085 -0.08781367 -0.058754493
000250 88 6b 12 3d 36 f2 39 bd 9e a7 8e bb 61 37 05 bd
       0.03574708 -0.045397006 -0.0043534776 -0.032523517
000260 b2 af 1b 3d fb 98 22 3c 9a 52 ab 3c 37 14 b3 bd
       0.038009353 0.009924169 0.020913411 -0.0874409
000270 db 51 00 bc a4 61 b9 bb 05 03 0e 3e df 7e 11 3e
       -0.007832016 -0.0056573916 0.1386834 0.14208554
000280 a1 fc ac 3d d8 65 3b 3e bc 87 9d 3e 07 f4 d8 3e
       0.08446623 0.18300569 0.3076762 0.42373678
000290 a4 32 db 3e 3c 7f e9 3e fc 1d 1d 3f 65 e5 07 3f
       0.42812073 0.45604885 0.6137388 0.53084403
0002a0 26 19 11 3f e4 2c c8 3e 0e 6c 08 3f bb 0c cd 3e
       0.56679 0.3909675 0.5328988 0.40048775
0002b0 9a ca 18 3f cc 24 1e 3f 7b 75 0c 3f 35 8f 33 3f
       0.59684145 0.617749 0.5486676 0.7014039
0002c0 dc 7d 5c 3f 7c 6b 24 3f b5 da 21 3f 9a 8d 4f 3f
       0.86129546 0.6422651 0.63224345 0.8107544
0002d0 8b 17 0d 3e 74 33 56 3e e9 fe fc 3e 3f 2b e4 3e
       0.13778512 0.20918065 0.4941323 0.44564244
0002e0 bb 73 0d 3f 4a 59 2d 3f f1 04 08 3f 44 83 01 3f
       0.55254716 0.6771437 0.5313254 0.5059092
0002f0 09 42 b6 3e f9 dd c3 3e 60 7d 1c 3e a4 83 47 3e
       0.35597256 0.3825529 0.15282202 0.1948381
000300 ed 18 8c 3e 1d 1d b2 3e 58 89 66 3e ea 72 8f 3e
       0.27362767 0.34787837 0.2251333 0.2801736
000310 b1 85 b8 3e 53 f7 b7 3e f2 33 ef 3e f8 a6 4a 3f
       0.36039498 0.3593088 0.4671932 0.79161024
000320 dd 32 3e 3f 00 8b 4d 3f 0b 7e 17 3f 5b 9c 30 3f
       0.7429636 0.8029022 0.591767 0.6898858
000330 7d 48 2d 3f 09 65 4b 3f 51 71 4a 3f db 1e 61 3f
       0.67688733 0.7945104 0.7907916 0.87937707
000340 6e ca 55 3f 1a 53 39 3f 06 95 45 3f b8 ee 30 3f
       0.8351201 0.7239243 0.77180517 0.69114256
000350 23 59 09 3f 2b 00 04 3f b4 7e 98 3e 36 cd a9 3e
       0.53651637 0.51562756 0.29784167 0.33164376
000360 39 e4 61 3e 13 aa 8c 3e cb 89 8e 3e 5f 85 82 3e
       0.22059716 0.27473506 0.27839503 0.2549238
000370 a5 34 49 3e c8 0e a9 3e a6 ca d0 3e 7c 5b a4 3e
       0.19648989 0.3301909 0.40779608 0.32101047
000380 30 92 8d 3e 48 65 c8 3e cb f5 a9 3e cc 93 be 3e
       0.27650595 0.3913977 0.33195338 0.37222135
000390 fc 4e ec 3e 66 a5 8f 3e 68 f9 b3 3e 2a b9 86 3e
       0.4615401 0.28055876 0.3515122 0.26313144
0003a0 d5 b7 72 3e 81 81 83 3e 3b 53 94 3e bf 44 d6 3d
       0.23702939 0.2568474 0.2896975 0.10462331
0003b0 d0 5c b9 3c 9a 39 d1 bd e8 9d f0 3c d5 ab 2d 3e
       0.022627264 -0.10216065 0.02937217 0.1696008
0003c0 67 5a 94 3e 43 ca c6 3e 01 c8 bb 3e 7a 3c b9 3e
       0.28975222 0.38826188 0.36676028 0.36178952
0003d0 12 4a 4d 3e b0 5b f9 3c bb 8d 55 bb 17 2d e6 3c
       0.20047787 0.030439228 -0.0032585699 0.028097672
0003e0 18 fd 2b be fd 0c ae be f9 ed 14 bf 78 9b 49 bf
       -0.16795766 -0.33994284 -0.5817562 -0.7875285
0003f0 02 cc 58 bf b3 93 89 bf bd 07 78 bf d0 d8 73 bf
       -0.8468629 -1.0748199 -0.9688681 -0.95252705

fc1.bias f4 [128]
000000 fa 09 23 bd 96 e0 27 3e bb 3c 2a bd 0f 31 04 bd
       -0.039804436 0.16394266 -0.041561823 -0.03227335
000010 0a b2 a1 bd f3 6a ba 3c db 1c a3 bf 56 6e 84 bd
       -0.078952864 0.022756075 -1.2743181 -0.064663574
000020 d6 c6 6a be 26 d6 b5 bc 6c a3 dd bd e0 4d 78 bb
       -0.22927412 -0.02219684 -0.10822186 -0.0037888214
000030 11 44 7c be ee 45 dc bd 49 10 fb 3d 0b bf b7 bd
       -0.2463534 -0.107555255 0.122589655 -0.089719854
000040 f2 a9 b5 3d 0e f2 ca 3c 9d 63 d5 bd 7f 80 54 bd
       0.08870305 0.024773624 -0.1041939 -0.051880356
000050 81 aa a1 bd 23 95 30 bc 95 4c 47 bd ef 63 32 3d
       -0.07893849 -0.010777744 -0.04865702 0.043552335
000060 11 3d 16 be ad 14 99 bd e4 2d a2 bc 4a 17 df 3d
       -0.14671732 -0.07474647 -0.019797273 0.10893114
000070 bb 9c 08 3f 05 8a 90 bd 2b d5 11 bd 5c 27 0b 3f
       0.5336415 -0.07057575 -0.035603683 0.5435693
000080 93 6a 84 bd b2 b1 ec bb 40 ea ae 3e dc 05 f4 bb
       -0.0646564 -0.0072233314 0.34163094 -0.0074469876
000090 59 0b 1d 3e f6 ec fd 3d f1 1a 3b bd 23 9c f5 be
       0.1533636 0.12398712 -0.04567999 -0.47970685
0000a0 ef a7 36 be 1d 9a 9b bd 27 7f 29 bd 06 10 90 bd
       -0.17837499 -0.07597754 -0.041381028 -0.07034306
0000b0 dc 21 8d bd b8 e0 24 bd d2 5b cd bc 70 eb 12 be
       -0.06891224 -0.04025337 -0.025068197 -0.14347625
0000c0 c0 10 b2 3e 03 e9 da bb 3b 4e 8f 3c 13 c9 c3 bd
       0.34778404 -0.006680609 0.017493358 -0.09559836
0000d0 ea f0 a7 bd 11 d3 2c 3e dc b0 6e bd 21 d2 ad bd
       -0.082002476 0.1687739 -0.058274135 -0.084873445
0000e0 2f aa 42 be 7e d2 33 39 16 d9 9d bc 5a fb 84 3c
       -0.19010232 0.00017149185 -0.019268554 0.016233135
0000f0 27 39 4d bd 19 43 b7 3c 5b 38 d1 3c 3f 94 66 bd
       -0.050103333 0.022370862 0.025539568 -0.056293722
000100 33 f5 f5 bd e1 c9 4d be 6a c7 d0 bd c7 05 7c bd
       -0.12009659 -0.20096542 -0.10194285 -0.061528947
000110 07 53 8e 3e 71 34 34 bd e4 18 39 bd bd ce 71 bd
       0.2779772 -0.043995325 -0.045189753 -0.05903505
000120 2b 89 1c bd 84 7b 74 bd 13 ae 9f 3e 36 03 4e bd
       -0.03821675 -0.059688106 0.31187496 -0.05029603
000130 8b 22 2f 3d 8f 23 91 bc d6 cd 3a 3e 3a 5e 30 bd
       0.042757552 -0.017717151 0.18242583 -0.04305861
000140 65 11 1d 3f 8b b0 c4 bd 9a 1e a4 bd 1a 08 21 3e
       0.61354667 -0.096039854 -0.08013649 0.15725747
000150 8e fa 82 bc 9c f4 44 be cd cd 76 bf 9f 7c 46 3f
       -0.015988614 -0.19233936 -0.9640778 0.77533907
000160 4f f3 e1 bc 69 f8 a7 bd 01 03 85 bd 6c 04 26 bd
       -0.027581839 -0.08201677 -0.064947136 -0.04053156
000170 80 f5 7f bd 79 0d 6e bc 40 e2 a9 bd 1e 14 46 bd
       -0.062489986 -0.014529579 -0.08295107 -0.04835903
000180 0e 85 b6 3d 06 95 fd 3e 10 22 4d be 21 e6 25 bd
       0.08912097 0.49527758 -0.20032525 -0.04050267
000190 f6 78 9e be bd 12 4c bd d5 19 9b bd dc f9 02 bd
       -0.3095166 -0.049822558 -0.075732864 -0.031976566
0001a0 63 44 9b bb d4 f0 f7 bb 17 fa 25 bd ff 2b 99 be
       -0.004738377 -0.0075665507 -0.040521707 -0.2991638
0001b0 50 91 7d bd 4b 4b 21 3e 32 4c 49 bd 1c f5 78 3d
       -0.06190616 0.15751378 -0.04914493 0.06078063
0001c0 d8 52 75 bd a9 fb c3 bd bc 59 1a be 00 87 41 bd
       -0.05989346 -0.09569485 -0.15073293 -0.047247887
0001d0 ac 47 ed 3d e6 9b 8b bd 50 97 88 be 22 4f 00 be
       0.11585936 -0.06816845 -0.26677942 -0.12530187
0001e0 3b 98 03 3f 59 cd 37 bf 4e 5e 42 3e fd 9d 51 bd
       0.5140416 -0.7179771 0.18981287 -0.05117606
0001f0 31 00 ff 3c 87 00 a4 3e a5 6c ea bb 4d 2d df bd
       0.031128021 0.32031652 -0.0071540647 -0.10897312

fc2.weight f4 [128, 128]
000000 fe 2f e1 bb 44 d9 5f be 26 10 2e 3d 1c ab d2 3a
       -0.006872176 -0.21860224 0.04249587 0.0016072723
000010 cc b4 96 bd 44 3f 6e 3d 28 9e 9e be f6 26 e0 bb
       -0.07358703 0.058165804 -0.3098004 -0.006840582
000020 28 26 82 bf 11 c0 b5 3c 48 13 93 3d b9 9c 1c be
       -1.0167894 0.022186311 0.07181412 -0.1529416
000030 79 94 a3 bf 69 fa 59 3c 07 ba e0 be cf dc bb 3c
       -1.2779685 0.013304331 -0.43891928 0.022932438
000040 6e 6c b5 bf de 1c 61 3e de 19 50 bd fe fe 78 bd
       -1.4173715 0.21983668 -0.05080592 -0.060790055
000050 b3 a1 aa bd d9 cb c8 3d 73 bd f1 39 ad e5 88 3e
       -0.08331623 0.09804506 0.00046108253 0.2673773
000060 ea e1 15 3d bc 9a 9f bd 88 b1 ae 3d bf 11 c6 bd
       0.0365924 -0.07793185 0.08529955 -0.096713535
000070 34 27 8f 3e 55 e0 e5 bb 80 d4 5f 3d 69 55 66 3e
       0.27959597 -0.007015268 0.054646015 0.22493519
000080 63 a2 8f bc 2b e5 48 3d 3b 55 a5 3f c8 3d 18 bc
       -0.017533487 0.049046677 1.2916635 -0.009292074
000090 c1 31 a3 3d 1d 30 d0 3f ff b4 c0 bd c8 64 cd bc
       0.07968474 1.6264683 -0.09409522 -0.02507247
0000a0 38 b5 29 bd d2 a8 f5 3c f0 a5 e7 3c 48 42 8c 3c
       -0.04143259 0.029987726 0.028277367 0.01712145
0000b0 86 d6 ca bd f8 0e b2 bd f0 24 95 3b 39 45 8a be
       -0.09904198 -0.08694261 0.0045515224 -0.27005938
0000c0 5f 23 d7 bc 0c 54 f2 bc 4f 26 97 be f4 de 90 bb
       -0.026261983 -0.029581092 -0.29521415 -0.0044211093
0000d0 86 2b eb 3d 17 f7 78 3d d9 7a 6d bd 18 99 92 3d
       0.11482911 0.06078252 -0.057978485 0.071581066
0000e0 9b a7 b3 be d9 c6 73 3d de 90 28 3d ec 9d 9e 3d
       -0.3508881 0.059515808 0.04115378 0.07744965
0000f0 e1 b6 0b bd 93 01 8d bd 4a a7 80 3e 65 bb 8a bc
       -0.034109954 -0.06885066 0.2512763 -0.01693506
000100 38 34 3c bd 65 f7 71 bf 5a 0e 9a bc bc d6 85 bd
       -0.045948237 -0.9451812 -0.018805671 -0.06535098
000110 67 ee b7 3e 4a 6a 95 bd 6b f8 8e bd 45 02 71 bd
       0.35924074 -0.07295664 -0.06980976 -0.058840055
000120 08 1c 63 bd fe f1 7d 3c 09 dc 8b bf af 22 82 3d
       -0.055446655 0.01549959 -1.0926524 0.063542716
000130 33 2b 0f 3d 1d fa 41 be b0 d0 8f 3e 3e f6 bb bd
       0.034953307 -0.18943067 0.28088903 -0.09177826
000140 7d a3 a5 bf fc 8a 18 bc 60 61 8a bd e4 f2 49 bc
       -1.2940518 -0.00931048 -0.06756854 -0.012325976
000150 49 91 ec bb d0 b6 e4 3c 0e 59 98 be 82 32 4a 3d
       -0.007219468 0.027919203 -0.29755443 0.049364574
000160 82 18 e9 bc d0 10 3f bd 67 37 b3 3d 8b 91 1c bd
       -0.028454069 -0.046646893 0.087508015 -0.038224738
000170 a1 c7 02 3d 71 d2 4f 3b 68 1d 65 3d 75 cb a2 bd
       0.031928662 0.0031711126 0.055936247 -0.079489626
000180 4a ff 0a bf 35 6c 98 bf 3e 89 09 be 31 08 ff bd
       -0.5429579 -1.1908022 -0.1343126 -0.12452734
000190 15 15 f7 bc 83 e8 6f bc 56 da 06 bd dc 00 b3 3d
       -0.03016142 -0.014642837 -0.032923065 0.08740398
0001a0 8b d8 76 3d fc c0 44 3d 09 5c 46 3c 83 87 78 3e
       0.060265105 0.048035607 0.012106904 0.24270444
0001b0 2a 3b a2 bd 08 2f a8 bf 97 18 a3 3d 21 d2 d1 bd
       -0.07921441 -1.3139353 0.079636745 -0.10245157
0001c0 70 79 c0 3c b2 ff 39 3e a3 a8 12 bc 8e 66 47 3d
       0.023495406 0.18163946 -0.008951339 0.04868179
0001d0 f0 22 26 bf 29 81 c5 bd fb 84 9f bd 04 46 c6 3d
       -0.6489706 -0.09643776 -0.07789036 0.09681323
0001e0 8a 7d e7 3e da cb ce bd 0c 6a c1 be 0c ab 84 bc
       0.45212966 -0.10097475 -0.3777622 -0.016194843
0001f0 aa 4b 83 3f 7a a3 14 3f 62 3c be 3e 9b ab 0c bd
       1.0257466 0.58061945 0.37155443 -0.034343343
000200 f5 ea 00 bd 95 ff 91 bd 22 a4 b9 bc 6f 03 31 3d
       -0.031474072 -0.071288265 -0.022661272 0.043216165
000210 fa c9 55 3d 58 26 20 3e 32 7a 01 bf 85 e4 0c 3c
       0.052194573 0.15639627 -0.5057708 0.008599405
000220 fc df c0 3e 87 4a 75 3d b8 24 07 3d 1b 35 1d bc
       0.37670887 0.059885528 0.032994002 -0.009595181
000230 ea 89 e2 be 34 2c c9 3d 64 96 a7 bd b6 21 10 3d
       -0.44245845 0.09822884 -0.081829816 0.0351884
000240 eb 03 80 be a6 d0 2c bd 7e 55 21 3d 28 fc 34 3d
       -0.2500299 -0.04219117 0.039388172 0.044185787
000250 24 95 80 3d 91 85 c9 bd 72 94 5c 3d d4 5e 20 be
       0.06278446 -0.09839929 0.053852506 -0.15661174
000260 7f 70 15 bc f5 a9 02 3d d6 81 25 3a c7 97 21 3e
       -0.009121059 0.031900365 0.00063135976 0.15780555
000270 bf 41 d1 bd 2c 56 37 bd 84 9e 4b be ef c7 49 bd
       -0.10217618 -0.044759914 -0.19884688 -0.049262937
000280 02 42 b1 bd 81 40 34 bc 44 e3 43 3e 2c f1 a3 bd
       -0.08655168 -0.011001707 0.19129664 -0.08004984
000290 7d 23 ff bd 20 1f 95 3e 9c 54 3c bd 65 55 4d 3e
       -0.12457941 0.2912531 -0.045979127 0.20052107
0002a0 f3 8e bc 3d 76 e1 8e bd 5f a3 63 bd fc 11 3d 3d
       0.09206953 -0.06976597 -0.055575725 0.04615973
0002b0 d6 71 94 3d 73 aa db 3d 6a 07 57 bd 94 b8 6b bd
       0.07248275 0.1072587 -0.052497305 -0.057549074
0002c0 9e ec 4d be a5 4f 48 bc 57 7e 0d 3d 35 46 e3 3b
       -0.20109794 -0.01222602 0.034544315 0.0069358596
0002d0 b7 fe a0 bd 6f e5 15 3d 87 76 c7 3b 7c 18 53 bd
       -0.07861083 0.036595758 0.0060871276 -0.051537022
0002e0 f1 d6 4b bf cd 80 11 3e a2 ad d3 3c 6f 0f bd bc
       -0.7962485 0.1420929 0.02583963 -0.023078648
0002f0 6a 51 bd 3c 84 39 8a 3d f4 5b 0c 3a 40 23 00 3d
       0.02311011 0.067492515 0.0005354278 0.031283617
000300 08 3e 49 3d 10 f4 01 3e f8 d9 69 3d b9 e7 d9 3d
       0.049131423 0.12690759 0.057092637 0.10639901
000310 a4 98 b6 3d c5 6b 3d 3d de f0 86 bd ce e7 fc bd
       0.08915833 0.046245355 -0.065889105 -0.12348901
000320 e9 03 31 3c da 41 1b 3d 22 75 b9 be 46 9c 3c 3d
       0.010804155 0.037904598 -0.36222178 0.04604747
000330 ca fb f3 bb 8d a3 82 3e ec 51 c4 be 75 04 21 3d
       -0.007445787 0.25515404 -0.3834375 0.03931089
000340 3a 52 4c bf ef f8 89 3d 59 bb a0 3d 78 bf 3f be
       -0.7981297 0.067369334 0.07848234 -0.18725383
000350 65 7d 41 3b 2c fc bb bd b1 11 c4 3e 9b 52 83 be
       0.0029524204 -0.09178957 0.38294747 -0.2564896
000360 f2 65 9b bd af f2 99 bc e6 0e 8a bc 08 d5 ce 3d
       -0.07587804 -0.018792478 -0.016852807 0.10099226
000370 97 c8 61 bd d1 75 a7 3d cf 5d 96 bd c2 b1 d9 bc
       -0.055122938 0.081767686 -0.07342111 -0.02657402
000380 44 77 a5 be d7 36 63 bf e8 e1 03 bf af 17 f2 bc
       -0.32317555 -0.88755554 -0.5151658 -0.029552309
000390 a6 ee 13 be 26 4c 08 bc 92 a1 33 3e cd 67 37 3d
       -0.14446506 -0.008318936 0.17542103 0.044776727
0003a0 e8 02 80 3d 30 f1 07 bc 63 46 5f bd 7c 54 62 3e
       0.06250554 -0.00829725 -0.054510485 0.2210254
0003b0 f1 19 ab 3d 3f 2f 0a bf 5c c9 65 3d 37 1a 9e 3c
       0.08354557 -0.5397834 0.056100234 0.01929961
0003c0 91 1c a3 3b 29 6e 1a be 42 a8 51 3c 5c 42 82 bc
       0.0049777706 -0.15081085 0.012796463 -0.015900783
0003d0 53 91 8a 3d b8 43 e1 3c 25 8f 3c 3e 6b 46 89 3e
       0.06766 0.027498111 0.1841398 0.26811537
0003e0 8c 6f 87 bd 7b c8 c1 3c 6f 55 79 be bd 6a 7f 3c
       -0.06613073 0.023655167 -0.24348997 0.015589413
0003f0 c1 58 c7 3d 0b e1 9c 3c 18 8e be be 4a fb 8f 3c
       0.09733725 0.019150278 -0.37217784 0.017575879

fc2.bias f4 [128]
000000 bc 06 93 be 4c 27 2a be 1a 76 87 bf 9a 5b 9b bf
       -0.28716075 -0.16616553 -1.0582917 -1.213733
000010 77 b9 30 be 46 83 f2 bd b0 a0 bb be e4 76 57 3e
       -0.17258249 -0.11841445 -0.36646032 0.21041447
000020 eb 2e 3e be e6 68 90 3e 2f 77 8a bf 4a 82 1f bf
       -0.18572585 0.2820503 -1.0817622 -0.6230818
000030 c8 44 e6 3d e1 8d c0 3e 1e ae 97 3f 01 15 0b be
       0.11243588 0.37608245 1.1850011 -0.13582231
000040 76 db ba bd 53 d4 d9 3c 4c af 9d 3f 0c 34 14 be
       -0.0912389 0.026590502 1.2319121 -0.1447298
000050 d1 ce 89 3f 6e 4c d2 bd 15 93 83 be a9 d7 a3 3e
       1.076624 -0.10268484 -0.25698152 0.32000473
000060 30 84 0c be c1 f5 fc 3e 26 53 7f ba 0b 89 07 bf
       -0.137223 0.49406245 -0.0009739868 -0.52943486
000070 eb c6 d8 bd a9 07 02 be 3a eb a7 3e 31 3c b3 be
       -0.105848156 -0.12698235 0.3279665 -0.3500686
000080 b5 e7 44 be 5a f9 93 be f3 0a 77 3f 7c ae 49 be
       -0.19229014 -0.28901178 0.9650108 -0.19695467
000090 80 c6 c2 be bc 96 36 bd 30 84 69 be 7a e8 29 3f
       -0.38042068 -0.044577345 -0.22804332 0.66370356
0000a0 28 83 4e bd 53 67 3e be df 48 4e 3f 9e 96 17 be
       -0.05041805 -0.18594103 0.8057994 -0.1480355
0000b0 a8 7f 79 3e 69 8f 6a be ea 73 8b be 32 2f 25 bf
       0.24365103 -0.22906269 -0.27236873 -0.6452514
0000c0 e3 f9 af 3e bb ae 01 be 15 70 6c 3f de ed 42 3e
       0.34370336 -0.1266431 0.92358524 0.19036052
0000d0 a2 5d 8e be 9d c6 91 3e 0a 9e 2d be 6e 68 7b be
       -0.2780581 0.28471842 -0.16954818 -0.24551556
0000e0 f0 2c 35 bf f2 35 34 be d9 21 be 3e 7a 6e cf 3d
       -0.70771694 -0.17598704 0.371352 0.101284936
0000f0 76 73 34 be 17 87 56 be f7 c0 d4 3d 05 ee d1 be
       -0.1762217 -0.2094997 0.103883676 -0.41001907
000100 86 d5 e5 be 3c d8 94 3e f8 f8 19 bf 7d 2c a1 3e
       -0.44889468 0.29071224 -0.6014552 0.31479254
000110 98 a6 2e be 70 8c a3 3e a0 c0 91 3d 6f d5 a1 be
       -0.17055738 0.31943083 0.071168184 -0.3160815
000120 0d 3e 81 bd 55 41 13 3f a2 39 a2 be a3 b2 8c be
       -0.06310663 0.57521564 -0.31684595 -0.2748004
000130 d7 07 7d 3f 2f 48 62 3d bc ec f6 3e f8 ff 93 3e
       0.9884009 0.05524462 0.4822749 0.28906226
000140 43 65 c8 bd 59 14 0e be 93 a8 b9 3d 5a 5c 93 3f
       -0.09784939 -0.1387495 0.09065356 1.1512558
000150 47 36 1b be 97 83 52 be 77 23 fc be ac 09 bf 3d
       -0.15157424 -0.2055801 -0.49245808 0.09328017
000160 8a e3 a7 be a7 9b 24 3f ed 20 2e be 31 2b d8 3e
       -0.32790786 0.64300007 -0.17004748 0.42220452
000170 f5 17 a6 bf 09 31 2f be 0b 31 ac bd c0 be d6 be
       -1.2976061 -0.17108549 -0.08407792 -0.41942406
000180 b5 98 c5 bd cd 3e 46 3f b3 4e 74 be 15 91 99 3d
       -0.09648267 0.77439576 -0.23858146 0.07498375
000190 52 aa c9 bd 9b 94 8c be 86 39 49 bd b4 3a 3b be
       -0.09846939 -0.27457127 -0.049127124 -0.18284112
0001a0 68 80 8b bd 4f 69 3a bd 17 11 a3 3f d4 9c 8e 3e
       -0.06811601 -0.045510586 1.273959 0.27854025
0001b0 4b 00 db bc 0e 07 61 3f 3e 25 c2 be 1b 6b 26 bf
       -0.026733538 0.8790139 -0.3791904 -0.6500718
0001c0 c6 68 79 be a6 2c 99 be 1a ce 9c be fe 7e 93 3f
       -0.24356374 -0.29916877 -0.30625993 1.152313
0001d0 f4 06 16 be 8d 5b a7 3f 09 99 a4 bd 14 8a 13 be
       -0.1465109 1.3074814 -0.08037002 -0.14408141
0001e0 ed 8a 01 3f c7 8e 3f 3e 46 8e 43 be 32 7c 9a bd
       0.5060261 0.18706809 -0.19097242 -0.075432196
0001f0 1b 22 2b bf ee 88 4f 3d 7b 69 5f be d9 11 1e be
       -0.66848916 0.050667696 -0.21817581 -0.15436496

fc3.weight f4 [2, 128]
000000 0a dc 9a bf fd a8 20 bc 7f 91 6a 3e b0 70 0b 3d
       -1.20984 -0.009805915 0.22907065 0.034043014
000010 0f 51 19 bd 16 78 e7 bb 09 32 33 3e f1 ce 76 bd
       -0.03743082 -0.007063876 0.17499556 -0.06025595
000020 51 1b 5c be a8 a8 51 3e 6c d7 25 be c6 d0 86 3c
       -0.21494795 0.20474494 -0.16195458 0.016456973
000030 67 cd b1 3f 7b 3e 0f bf ab 36 29 40 aa a4 db bf
       1.3890809 -0.5595471 2.6439617 -1.7159626
000040 87 9a 39 3d 3f 7c 52 3e e5 9d 74 3f 5e 6f d5 3b
       0.045313384 0.20555209 0.9555343 0.00651352
000050 5f fb ba 3d 00 68 3f 3b 42 20 e2 be 23 12 e9 3d
       0.091299765 0.0029206276 -0.44165236 0.113804124
000060 b7 f5 42 3e 88 a5 2b bf 72 00 fa 3c c5 0a eb 3d
       0.19039045 -0.67049456 0.03051779 0.114766635
000070 e0 9b 19 3e c5 94 0b 3e ce 84 80 3f 8e 64 f2 3e
       0.15000868 0.1363097 1.0040529 0.47342342
000080 2c dd 97 be 52 ab 6a 3e 14 06 2e 3f 1f 8f d9 bc
       -0.29660928 0.22916916 0.67978024 -0.026557503
000090 b5 32 34 3f f5 df 51 bf 4a 6e 25 3e 3b 41 b2 bd
       0.7038987 -0.81982356 0.16155353 -0.08703848
0000a0 44 83 cc 3e 91 b4 5d 3e 00 73 1f 3f b7 1e 68 3e
       0.39943898 0.21650912 0.6228485 0.22667967
0000b0 de c1 ed 3e 90 d2 93 3d 4e 2f 59 bd 9f fe 30 be
       0.4643697 0.07217896 -0.05302363 -0.1728463
0000c0 be 94 f5 3e 35 95 eb 3d 51 6c 50 3f d9 fd 97 3f
       0.47965044 0.11503068 0.8141528 1.1874343
0000d0 0a b2 29 be 26 ce 15 be 19 1b ec bd 6a 5f 95 3d
       -0.16571823 -0.1462942 -0.11528606 0.072935894
0000e0 fc 48 bb 3d df c5 c2 3c f0 e6 c4 be 68 39 91 3d
       0.0914478 0.023775993 -0.3845744 0.070910275
0000f0 04 50 95 be b2 60 0a c0 66 8d f8 bf 7d 71 2a 3e
       -0.2916261 -2.1621518 -1.9418151 0.16644855
000100 8f e7 08 3e 67 78 36 3e e3 ad 6d be c0 f0 cc bd
       0.13369583 0.17819367 -0.23210864 -0.10006857
000110 f0 f1 38 be aa 93 b0 bf 23 85 e3 3d 51 9f 26 3d
       -0.18061042 -1.3795063 0.11109378 0.04067928
000120 77 61 f7 3d 95 f0 2b bf dc 54 10 3d 29 4b b1 bc
       0.12079137 -0.67163974 0.03523718 -0.021642284
000130 2d d8 2b 40 3b f6 bb be d7 49 60 be 78 2b 1a bf
       2.6850693 -0.36711296 -0.21903168 -0.6022258
000140 0e 25 42 bf 17 7c f0 be cc 6c 11 3e 2d a4 39 3f
       -0.7583779 -0.46969673 0.14201659 0.7251614
000150 2d fb 84 be 59 b1 88 bf 6c 9c 8c be a8 d6 73 be
       -0.25972882 -1.0679122 -0.2746309 -0.23812354
000160 60 5f 6e bf 5c 49 6f 3f 07 07 08 bc 1d aa c8 3d
       -0.9311428 0.9347131 -0.008302457 0.097980715
000170 93 20 46 3e f4 25 34 be 9d 38 80 bf 36 79 ed 3e
       0.19348364 -0.17592603 -1.0017277 0.4638154
000180 22 82 66 be 5c cf bc 3f 16 e5 4b 3e 6a 4d 25 bf
       -0.22510579 1.4750781 0.19911608 -0.6457125
000190 d5 89 de 3c 26 94 7a bf 54 b9 d6 3c 7e 44 3f 3e
       0.027165333 -0.97882307 0.026211418 0.18678471
0001a0 e9 31 a1 3f fd a3 d6 be 72 bb 88 3f 0f e0 a4 3e
       1.2593356 -0.41921988 1.0682204 0.32202193
0001b0 7a 60 83 3e 01 3f bf bd 9b 66 20 3f 03 c0 78 3e
       0.25659543 -0.09338189 0.62656564 0.24291997
0001c0 0c 76 31 c0 ff 34 9e bd 86 ae b7 bd 20 94 a0 3f
       -2.77283 -0.07724952 -0.089688346 1.2545204
0001d0 46 aa 6f 3d 2c 6b 82 3e d1 2a c6 3f ba 51 0a 3d
       0.058511995 0.2547239 1.5481817 0.033769347
0001e0 97 5a d7 3f 11 4b 77 bf 7b a0 8b be e7 05 a9 3e
       1.6824521 -0.9659892 -0.27270874 0.33012316
0001f0 4b 77 26 3f 1c e8 7a be 48 22 4c bb 45 35 21 3d
       0.65025777 -0.24502605 -0.0031148363 0.039357442
000200 4d d7 db bd 9b 6a 38 be 74 ed 4f bd fd 06 7e 3d
       -0.10734425 -0.18009417 -0.050763562 0.062018383
000210 5c de 6d bd 75 17 b2 bd 49 2c db 3c 86 fc c6 3d
       -0.058073387 -0.0869588 0.026754515 0.09716134
000220 7d 2f 86 be 07 74 cc be 71 d6 8b 3d 7f e1 25 3e
       -0.26208106 -0.39932272 0.06828011 0.16199301
000230 1d f8 d1 3f 3d d2 49 bd c9 f9 8f 3f 52 8b b0 bf
       1.6403843 -0.049272764 1.1248103 -1.3792517
000240 7e a9 83 3d d2 c7 68 3e 8b 89 5b 3f e5 90 fe bc
       0.064288124 0.22732475 0.8575675 -0.03107495
000250 82 22 e4 3d 28 b8 2f 3d d0 cc e8 be 2b 97 4f 3d
       0.11139394 0.042900234 -0.4546876 0.050681274
000260 da ab 89 3c 81 69 05 3d 9f 64 21 3b 72 9e cc bc
       0.016805578 0.03257132 0.0024626625 -0.024977896
000270 32 f6 18 bf d7 6c c2 3d 09 eb 6b 3f c9 7f a7 bd
       -0.59750664 0.09493416 0.9215551 -0.0817867
000280 7f 0f 12 3c 04 f9 db 3e aa 39 03 40 42 71 e7 bc
       0.008914827 0.4296342 2.0503945 -0.028252248
000290 e0 f5 82 bc db 15 04 c0 53 98 02 3e 53 87 b9 bd
       -0.015986383 -2.063834 0.1275342 -0.09059014
0002a0 5c 2d 96 3e 4e a3 e6 3e 3f 67 00 40 09 c2 cf bc
       0.2933148 0.45046467 2.0063016 -0.025361078
0002b0 26 7a 58 3e 25 2e 36 3d 21 cb 8b bd 6a fb 90 3e
       0.21140346 0.0444776 -0.06825853 0.28316814
0002c0 f5 ae bc bd ca 88 38 be 00 33 c9 3f fc 93 23 be
       -0.09213058 -0.18020931 1.5718689 -0.1597442
0002d0 1d db 29 be 6d de ac ba 06 45 24 be a1 78 c0 bc
       -0.16587491 -0.0013188847 -0.16041955 -0.02349502
0002e0 06 91 84 3d ba a5 9a 3c 5d 4e d0 bf a2 35 c3 3c
       0.064729735 0.018877853 -1.6273915 0.023829285
0002f0 7c ec 9b be be af 69 3f 24 04 30 3e d5 83 27 be
       -0.3045386 0.91283786 0.1718908 -0.16358884
000300 52 d8 56 3e ba 5a f4 3d f3 2d da be f5 de 19 be
       0.20980957 0.11931367 -0.4261318 -0.15026458
000310 cc be 80 be e3 a6 46 be f0 81 19 3e 1b 41 27 3a
       -0.25145566 -0.193996 0.14990973 0.0006380246
000320 83 b0 0f 3e d1 9f ea be eb 2b 19 bf 90 cc 8c 3d
       0.14032178 -0.45825055 -0.5983264 0.06874955
000330 d4 fd fc 3f 98 2b 8e 3d 36 86 4a 3d e9 a0 6b bf
       1.9764962 0.069419086 0.0494444 -0.92042404
000340 b4 ce a9 3e 76 25 ab be 14 a0 6f 3e 30 be 76 3f
       0.33165514 -0.33427018 0.23400909 0.96383953
000350 9a 46 79 be 5f 50 06 3e d0 82 4e 3e 59 18 ba 3d
       -0.24343339 0.13116597 0.20167089 0.09086675
000360 a6 d3 08 3e c7 84 be 3e 96 e6 87 3c 63 0e fa bf
       0.13361987 0.37210676 0.016589444 -1.953564
000370 1a 9f 1b 3e ba 5b b4 3c e9 58 fe be cd 26 93 3e
       0.15197411 0.022016395 -0.49677208 0.2874054
000380 5a ef 50 3e 30 b6 00 3f 27 87 82 3e e3 9b 34 3f
       0.20403805 0.50277996 0.25493738 0.70550364
000390 bf a8 07 bd 56 b9 36 bc ba 54 81 3d 8a b4 c6 3d
       -0.033119913 -0.011152586 0.063149884 0.09702404
0003a0 c9 44 2b bf db 91 b1 bd c8 13 02 40 c1 c0 b7 3d
       -0.6690183 -0.08670398 2.0324574 0.08972312
0003b0 c9 83 6c 3d 49 be 44 be d6 c0 d9 bc ef a0 a7 3e
       0.057742868 -0.19213213 -0.02658121 0.3273997
0003c0 e3 58 a9 3d ed a9 d7 bd 3d c6 cc 3d 4e fd 5b 3f
       0.08268907 -0.10530458 0.099987485 0.8593339
0003d0 1d 2c fd bc 47 8f d6 3e be 03 a0 3e d8 2d bb 3a
       -0.030904824 0.41906187 0.31252855 0.001428063
0003e0 87 2a 45 3e 0e a4 81 bf 2f 35 46 bd c9 08 d4 3d
       0.19254504 -1.012819 -0.048390564 0.10353238
0003f0 76 fd 63 3f 8c 38 4f bf 0a 6c b2 3b 1e a0 0b 3e
       0.89058626 -0.8094566 0.005445008 0.13635299

fc3.bias f4 [2]
000000 df 0f 69 bf 1c f5 b4 bf
       -0.9103984 -1.4137301
